model_weights.pth (torch, 29727 bytes, 6 tensors)

fc1.weight f4 [64, 37]
000000 d7 3f 02 3e 92 bc 1d be b2 19 8c 3d d0 b3 84 be
       0.12719665 -0.15403965 0.068408385 -0.25918436
000010 b4 67 e8 be 16 b1 50 3e 47 50 8e 3d 27 e7 9a 3b
       -0.4539162 0.20380053 0.069489054 0.0047272625
000020 9d 35 a3 be 36 c9 ad 3d e2 76 0c be 9a 57 a9 be
       -0.3187684 0.084856436 -0.13717225 -0.33074647
000030 c8 d3 3e be 77 9e ae 3e 60 22 77 3e be 12 a3 bd
       -0.18635476 0.34105274 0.24134207 -0.07962559
000040 fa 00 01 3e 50 dc 1b 3e cb 31 45 3e 84 7a 96 3e
       0.12598029 0.15220761 0.19257276 0.29390347
000050 b0 c7 82 3c 30 0b 15 3e a7 70 5b 3e 51 8e 88 be
       0.015964359 0.14555049 0.21429692 -0.2667108
000060 f5 dd 2a be f9 dc d0 bd 74 be 6b 3e 15 19 57 3e
       -0.16686232 -0.10198397 0.23021871 0.21005662
000070 be f1 71 be 8d 6f 98 be a6 66 0d be 49 47 28 be
       -0.23627374 -0.29772606 -0.13808689 -0.16433443
000080 6f a9 86 3e 00 25 01 bf 38 6c 17 be 1d d4 ea be
       0.26301143 -0.5044708 -0.14787376 -0.45864955
000090 82 e8 c8 bd 1e 70 da 3e 04 e4 38 be e8 e6 e3 3b
       -0.09809972 0.42663664 -0.18055731 0.0069550164
0000a0 b3 91 98 3d 59 c0 ce 3d 7e 10 13 3e a7 89 f6 be
       0.07449665 0.10095281 0.1436176 -0.48151895
0000b0 f0 12 ac be 49 d6 0f bf 9f 22 8a bf 3a fb 42 bd
       -0.33608198 -0.5618635 -1.0791816 -0.04760287
0000c0 33 7b 25 be c3 b2 97 3e a3 49 ed 3b 1b b3 ef bd
       -0.16160278 0.29628572 0.007241444 -0.117040835
0000d0 35 6c b4 3b de 55 27 bd 90 97 5b 3d fc 7a 78 3e
       0.0055060633 -0.040853374 0.05361134 0.24265665
0000e0 b3 ec e9 3e cc 6a bb bc 82 a4 0d be 62 de 43 be
       0.456884 -0.022878073 -0.13832286 -0.19127801
0000f0 01 5a 08 3e f4 5f 53 3f ca ff 48 3e 22 4d a2 be
       0.13315584 0.8256829 0.19628826 -0.31699473
000100 a9 46 ab bd 4d 2e 0a 3e e4 4e 92 3e 9f 2f a3 bc
       -0.08363087 0.13494225 0.28575814 -0.019920168
000110 da 39 b2 bd 48 26 1e 3e 61 ee 42 3f a7 0c c3 3e
       -0.087024406 0.1544429 0.7614499 0.3809559
000120 7b 40 87 bd c7 6e 44 bc 45 d6 9b 3d e1 cc 47 3d
       -0.066040955 -0.011989302 0.07609228 0.048779372
000130 cd ac 47 be 6d 28 bc be dd ab f3 3c be 2a b9 bf
       -0.19499512 -0.36749592 0.029745037 -1.4466169
000140 be 16 cc be dd 34 02 3e 04 dc 8b 3e bf 06 12 bf
       -0.398611 0.12715478 0.27316296 -0.57041544
000150 d5 e2 28 3e 70 cd b7 bd 54 a8 de be 3a 12 ee 3e
       0.1649278 -0.08974731 -0.434878 0.4649828
000160 92 8a f1 3e dc 63 3b be 55 2d 8a 3d c7 35 25 be
       0.47176033 -0.18299812 0.06746928 -0.16133796
000170 eb a8 81 3d ed eb 8b 3e 13 58 cf be a5 9d 34 3e
       0.06331047 0.27328435 -0.40496883 0.17638262
000180 84 de 80 3c 7b 8b 93 3d 3a 20 aa bd e5 91 56 bf
       0.015731104 0.07204338 -0.08306928 -0.8381637
000190 4b 58 a2 3e f2 33 c3 3d b0 8b e4 bd 19 3a a7 3e
       0.31707987 0.09531392 -0.11159456 0.32661512
0001a0 d8 32 12 bf 19 10 e6 3d c3 61 be bc e9 46 cc be
       -0.5710883 0.11233539 -0.023239976 -0.3989785
0001b0 02 ee b0 3e 5c 8c d6 3d b6 aa 94 bb 58 fb c0 be
       0.34556586 0.1047599 -0.004536952 -0.3769176
0001c0 d3 83 de be 06 6a f5 3e da 54 d0 be 0e 62 d0 bf
       -0.4345995 0.47932452 -0.40689737 -1.6279924
0001d0 11 7d 37 bf 6f 91 37 bf 02 18 92 bd db 2f 40 be
       -0.7167521 -0.7170629 -0.071334854 -0.18768255
0001e0 2d 50 51 bf 94 75 f2 be 22 1b 64 bd 4c ac f7 3d
       -0.81762964 -0.4735533 -0.05568994 0.1209341
0001f0 83 d9 35 bf d6 43 c6 be a1 55 ac be 34 c7 d8 be
       -0.7103502 -0.3872363 -0.3365908 -0.4233948
000200 4a 09 d9 3c 7c 19 20 bf b8 2e 3d bf 8f e3 26 bf
       0.026493687 -0.62538886 -0.7389941 -0.65190977
000210 40 e7 64 bd 4f 29 ef bc 27 92 11 be 7c 7b 25 3d
       -0.0558846 -0.029194502 -0.14215909 0.040400967
000220 bd 25 9b be 56 c0 25 bf de 8c e4 3d 24 f1 1d bf
       -0.3030223 -0.64746606 0.11159681 -0.61696076
000230 89 a8 3d bf 84 7b 42 3d e4 16 78 3e 89 47 6b be
       -0.7408529 0.047481075 0.24227482 -0.22976507
000240 94 a1 b2 be 3d 8c 15 be d1 0f c2 3d 99 69 c1 bd
       -0.348889 -0.14604278 0.09475673 -0.09443969
000250 d5 3f 80 bd ba 14 9d be fc e2 ef bd 4b 6a ce bd
       -0.06262175 -0.30679876 -0.11713216 -0.100788675
000260 83 54 d3 be 13 40 83 bd 41 21 d3 3e 3d 68 1c be
       -0.41275415 -0.064087056 0.41236308 -0.15274139
000270 d4 ad d3 be 67 ce 96 be 97 ad 62 be 3c fb 83 bf
       -0.41343558 -0.29454347 -0.22136532 -1.0311046
000280 fc b5 d6 3e 86 aa d1 be 14 9e ab 3b 9c 0c cd be
       0.41935718 -0.40950412 0.0052373502 -0.40048683
000290 e4 ec 91 bd cb 74 17 3e 80 8d c3 be 54 9f d1 bd
       -0.071252614 0.14790647 -0.38193893 -0.102354676
0002a0 b7 7c b8 be 80 44 25 bf 3e e3 7e 3e 33 2b ef 3e
       -0.3603265 -0.6455765 0.24891374 0.46712646
0002b0 a4 6f 2e 3f b6 2b 22 be 0f d3 59 be 11 7d f6 3d
       0.681391 -0.15836987 -0.21271919 0.12035573
0002c0 d4 6a 06 3e ff 2a da be db 10 3b be d3 16 e9 bd
       0.13126689 -0.42610928 -0.18268149 -0.113813065
0002d0 f3 1a 2f bb 22 21 28 3f b3 0f 10 3f 1e 6e 72 bd
       -0.0026718944 0.65675557 0.56273955 -0.059187047
0002e0 9f 80 2f 3d 19 b3 18 3e 6c d1 4f 3c b6 a1 73 3d
       0.042847272 0.1491207 0.012684207 0.05948039
0002f0 f3 60 c0 bd d5 a3 36 3d 41 16 a1 3e 92 86 a9 bd
       -0.093934916 0.044589836 0.3146229 -0.082776204
000300 1f ee 12 3c e2 9a e6 be 41 49 5e bf 60 b7 99 3d
       0.008967905 -0.4504004 -0.86830527 0.07505679
000310 b5 ff 2f be 5d 4f a9 3b 4a 99 e3 bc 4b 74 ba 3d
       -0.17187388 0.0051669315 -0.027783055 0.091042124
000320 ec 5f 36 bd 83 c8 1c 3e f1 6c cd 3c 88 2c 8a 3d
       -0.044525072 0.15310864 0.025076361 0.06746775
000330 02 3d 44 bd da 47 f8 3e 72 15 8b bd 32 91 68 3a
       -0.047909744 0.48492318 -0.067912 0.00088717334
000340 eb 9d 22 bf 55 8e 9a bf 0a 19 d0 3a 14 49 f7 3d
       -0.63522214 -1.2074686 0.0015876603 0.120744854
000350 e8 fa 19 3e e2 38 09 3e 06 88 91 3e cb 90 cd 3d
       0.1503712 0.13400605 0.2842409 0.10037383
000360 4e 37 74 bd 38 c6 62 bd 07 47 81 3e 84 6f d1 3d
       -0.059623055 -0.055364817 0.25249502 0.10226348
000370 00 51 21 be 19 3b 4f 3a b2 07 5a 3e e6 04 f1 3d
       -0.15753555 0.00079052296 0.21291998 0.117685124
000380 b1 c7 4b be c7 d1 e9 bd fa 41 cc be 43 60 92 be
       -0.19900395 -0.11416965 -0.39894086 -0.28589067
000390 40 3c bb 3d 11 26 1d 3d 9c 72 e0 3e 0a 16 f3 3e
       0.09142351 0.03836638 0.4383744 0.47477752
0003a0 9c 9d 14 bd 21 c1 94 bd 3d 63 b4 3e c8 52 cb 3e
       -0.03628312 -0.07263399 0.35231963 0.39711595
0003b0 7f fa 3b 3f e9 86 2d bb db 5d 25 be f3 6b 69 3e
       0.734291 -0.0026478118 -0.16149084 0.22795086
0003c0 3f 8c b8 3c bc 2a b9 3e 63 f3 99 bd 73 8f 3d bd
       0.022527812 0.36165416 -0.075171255 -0.046279382
0003d0 bc 9c 9c 3e 9c 2a c8 3e e4 f4 19 3f 55 d8 0f 3e
       0.3058833 0.39095008 0.601393 0.14047368
0003e0 07 58 1b be 8e a2 93 3c 0a 0a e5 bc 72 f0 98 3d
       -0.15170299 0.018021848 -0.027958889 0.07467736
0003f0 19 6a de 3e 29 71 9f be 41 c2 d1 3d ff 52 8a bd
       0.4344032 -0.31141022 0.10242129 -0.067541115

fc1.bias f4 [64]
000000 7d 36 a7 3d 50 29 0a be 0a 3d 09 bf 09 da 54 be
       0.0816469 -0.13492322 -0.53608763 -0.20786299
000010 dd 8c 3b 3d f3 e0 09 3d 90 44 c1 bd e6 75 16 be
       0.045788635 0.033661794 -0.094369054 -0.14693412
000020 02 5d ec bd 97 1d 90 be 79 02 12 3e 54 c5 7a 3e
       -0.11541177 -0.28147575 0.14258756 0.24489337
000030 09 f4 f4 3d 1f 2a 8c 3d 37 26 1c bd 8a 94 24 3e
       0.119606085 0.068439715 -0.038122382 0.16072288
000040 d0 d8 34 be 60 17 f6 3c eb 4b b6 3d 12 98 24 bd
       -0.17660832 0.030040443 0.08901199 -0.040184088
000050 d9 47 a0 bd 3c 51 89 3d 7e 92 10 be 28 3d 49 be
       -0.07826204 0.06704947 -0.14118382 -0.19652236
000060 a5 5e 40 3c e5 36 24 3e a7 45 2c be db eb 7f be
       0.011741315 0.16036566 -0.16823445 -0.24992315
000070 7e 57 a7 3d 5f 1e fb bb 02 dc a3 bb d1 06 14 be
       0.08170985 -0.0076635326 -0.005000592 -0.14455725
000080 48 ce a8 ba 0b 8d 05 be 98 57 80 be 61 c1 c8 3d
       -0.0012878859 -0.13042085 -0.2506683 0.09802509
000090 6d e5 5d be b7 e4 58 3c 40 7b 82 bc 25 3f 5d be
       -0.2166955 0.013238124 -0.01592791 -0.21606119
0000a0 48 78 8d be 46 53 a0 bd e2 9a 2b be aa 4e 40 3e
       -0.2763083 -0.07828383 -0.16758302 0.18780008
0000b0 18 35 66 bd 1c 5e 82 be 6a 9b 0e be 0e 7a db bb
       -0.056202978 -0.25462425 -0.13926473 -0.0066978997
0000c0 87 79 95 bd a9 f4 16 bd 90 d9 68 be a8 0d d9 3d
       -0.0729857 -0.03685442 -0.22739244 0.10598308
0000d0 ba 93 43 be db ca 27 be 39 9d b7 be 1e e2 61 3c
       -0.19099322 -0.16385977 -0.3586214 0.013786821
0000e0 62 fb 05 3e a3 9f cd bd 7f 6b c0 bd 33 8a 9b be
       0.13084176 -0.10040214 -0.09395503 -0.30378875
0000f0 26 ea 8f bc 0a 02 f2 bd c0 72 0f 3e 96 b8 01 3e
       -0.017567705 -0.11816795 0.14008617 0.1266807

fc2.weight f4 [64, 64]
000000 76 a7 33 bd 11 cc ae bd a2 ce 35 be 6c c2 59 3e
       -0.043860875 -0.08535016 -0.17754605 0.21265572
000010 55 35 86 3e 3c a8 40 bd a4 65 ca be 13 58 c4 bb
       0.26212564 -0.04703544 -0.3953067 -0.0059919446
000020 1a 77 ae bc 71 78 41 bd 75 d4 30 be 0e 26 9f bd
       -0.021297026 -0.047234003 -0.17268546 -0.0777093
000030 15 2d 6e bc 09 66 af 3e fe 01 ee be 34 7e 8f 3c
       -0.014537116 0.34257534 -0.46485895 0.017516233
000040 53 52 4c 3d ac 5d 53 be 14 c6 d2 bd 8a 41 8d 3d
       0.049883198 -0.20641202 -0.10291687 0.06897266
000050 8c b6 35 be 3f 51 25 be 40 d3 a4 be e1 d1 80 bc
       -0.17745417 -0.16144274 -0.3219242 -0.015725078
000060 ba a8 be bd 84 6e c7 3a ed 69 0e 3e 73 c5 3b bd
       -0.09309526 0.0015215431 0.13907595 -0.0458426
000070 92 b8 27 bd e3 e3 80 be 97 ae 22 bd bc b8 21 3e
       -0.040947504 -0.25173864 -0.039717283 0.15793127
000080 c2 52 6a 3e 72 1c 15 bd 3e fb 97 bd fc 5b 1f bd
       0.22883132 -0.03640408 -0.074209675 -0.038906083
000090 6a 53 3b be 8c 5b 1a be a1 fd 31 3d 76 3e 60 be
       -0.18293539 -0.15073985 0.04345477 -0.21898827
0000a0 26 88 d7 be 3e c1 81 3d 14 7b 86 3d b1 98 20 be
       -0.4209606 0.06335686 0.06566444 -0.15683247
0000b0 7b 64 89 bd 74 df c5 bd b4 bd 6f be a6 e6 ca 3b
       -0.06708618 -0.09661761 -0.2341221 0.006192046
0000c0 1f b2 b7 bc 55 5f f9 bd dd a2 fb be db cd e6 bb
       -0.022423802 -0.12176386 -0.49147692 -0.007043583
0000d0 8b e6 81 bd de 35 ae be 88 92 3b be ee 5e 26 3d
       -0.06342801 -0.34025472 -0.18317616 0.040617876
0000e0 b0 07 0d be 12 21 57 be 7e 72 22 be 75 8c 67 3d
       -0.13772464 -0.21008709 -0.15863988 0.056530435
0000f0 ac 4d 71 be 06 74 c4 3e 92 73 c9 bd 08 29 a0 be
       -0.23564786 0.3836977 -0.098364964 -0.31281304
000100 cf ad 4e 3d 49 db 76 3c cf c5 98 be 07 cd 67 3e
       0.050458726 0.01506693 -0.29838416 0.22636805
000110 2d 93 9b be e8 24 10 bd aa b6 9f be 99 d5 0e 3e
       -0.30385724 -0.035191447 -0.3119405 0.13948669
000120 49 7a 1e 3e 9b 2d 85 be 26 1d 5e 3d fd 7d 87 3e
       0.15476336 -0.26011357 0.054227017 0.2646331
000130 3d b5 f8 be ac 0f a0 3e 13 40 13 be c9 19 b8 be
       -0.48575774 0.31261957 -0.14379911 -0.35957173
000140 f0 22 a9 bd 88 b7 0a 3f 12 1c 4c be 70 f4 fc be
       -0.08258617 0.54186296 -0.19932583 -0.4940524
000150 ec aa 75 bd a2 f0 9e bd 00 cc dc 3d e4 9c 0e bf
       -0.059977457 -0.07760741 0.107810974 -0.55708146
000160 9b 05 df 3c 7c 59 83 3d 00 2e 76 bd a5 58 fd 3c
       0.027224353 0.06413552 -0.060102463 0.030926058
000170 46 17 6b be 07 2c 4a 3e 1e 5b 11 bf 86 aa 92 3e
       -0.22958097 0.19743358 -0.5677966 0.28645724
000180 9c d2 9f be cd 06 f0 3c 3f 33 04 be c8 a8 80 3e
       -0.3121537 0.029300118 -0.12910174 0.2512877
000190 81 29 1f ba 5c dd 90 be 04 7b bd bd ff 02 2a 3e
       -0.0006071553 -0.28293884 -0.09251979 0.16602705
0001a0 d3 a5 b7 be c5 28 da 3d ce da 7a 3c 03 88 bb be
       -0.358687 0.106523074 0.015310956 -0.36627206
0001b0 31 1c 89 bd e2 d3 23 3e 98 2c c0 3d 8b be cd 3d
       -0.0669483 0.15998796 0.093835056 0.10046109
0001c0 b7 70 3d be ab 8c 87 be 00 b8 74 be 3f 40 44 3d
       -0.18500029 -0.2647451 -0.23898315 0.047912832
0001d0 3f cc fc 3d 26 0c 6c be b6 22 df 3d fe b5 7f be
       0.12343644 -0.2305151 0.108952925 -0.24971768
0001e0 40 bd be bd 0d ad 28 be 01 be 9d 3e 00 8c 0d 3f
       -0.0931344 -0.16472264 0.30809024 0.5529175
0001f0 d0 a9 e5 be 5f 4a a4 3c 4e c9 3a 3e ad 0d ab 3d
       -0.4485612 0.020054994 0.18240854 0.08352218
000200 f7 6a 77 be 59 31 5a be 2b 47 a7 bd b7 c9 02 3e
       -0.24161898 -0.21307887 -0.08167871 0.1277226
000210 55 ab bc 3b 7c 38 19 3d 71 18 a8 bc 81 34 8a 3d
       0.005757729 0.037407383 -0.020519467 0.067482956
000220 6e c3 43 3e ea 9a 8b ba 2c ef 90 3d e5 92 91 3e
       0.1911752 -0.0010651026 0.070768684 0.28432384
000230 0f df 38 be 95 02 93 bd 26 7e 81 be ba 2e bc bd
       -0.1805384 -0.07178227 -0.25291556 -0.091886
000240 1b 03 8c bc a7 94 ad 3e e3 1e 3a be ef 9d 05 3e
       -0.017091325 0.33902475 -0.18175845 0.13048528
000250 fa e1 ea bd 31 ff 00 3e e5 42 6c bd 06 b3 95 be
       -0.11468883 0.12597348 -0.057680983 -0.29238147
000260 1a b0 59 3e 27 e1 d5 3e f2 37 0e 3e 98 12 13 3e
       0.21258584 0.4177334 0.13888529 0.14362562
000270 a0 2d 59 3e 94 b4 7e 3e 1a 5c a5 be e8 94 2a be
       0.21208811 0.24873573 -0.3229683 -0.16658366
000280 16 04 c1 3d a4 7b 94 b9 73 94 cf be 1b 0c 96 bd
       0.094246075 -0.0002832088 -0.40542945 -0.07326528
000290 56 0d 24 3e c6 91 fb bc 6d 6e 1d be a8 4f 5c 3d
       0.16020712 -0.030709159 -0.15374155 0.053786904
0002a0 35 11 ff bd c8 c7 a3 be 33 7e ee 3d f0 86 43 3c
       -0.12454454 -0.31988358 0.11645164 0.011934027
0002b0 be 53 52 bc ea cd ab be 88 fd 1c 3e 8e 5a 81 bd
       -0.0128373485 -0.33555537 0.1533109 -0.063161
0002c0 44 ba 4d 3c 83 80 66 3e 61 35 13 be c8 74 9b 3d
       0.012556616 0.22509961 -0.14375831 0.07590634
0002d0 ba 3e c6 3d d4 40 1e 3e 6a 94 a6 3d 70 19 b9 3d
       0.09679933 0.15454417 0.081337765 0.09038055
0002e0 26 ba 86 ba 5e c7 c6 bd d8 bd 61 3e 0b a3 2c 3e
       -0.0010278865 -0.09705995 0.22045076 0.16859071
0002f0 67 18 a9 bd 9c 8a 0b be 24 f9 46 3e cc f6 21 3f
       -0.082566075 -0.13627094 0.19430977 0.6326721
000300 bc 89 0c be 5d 62 02 bf a2 82 2e be 49 9a 61 be
       -0.13724416 -0.5093134 -0.1704202 -0.22031511
000310 61 b3 89 3e 82 f6 71 bc 56 6d 82 3d f2 39 54 be
       0.26894668 -0.014768245 0.063685104 -0.2072523
000320 e5 f7 71 be b9 7b 3b bf 50 f4 78 be 8c 65 4e 3d
       -0.2362972 -0.7323566 -0.24311948 0.05038981
000330 a7 5e 30 be c6 2a 3f bd 27 e4 05 bf 2c c3 da be
       -0.17223607 -0.04667165 -0.5230126 -0.4272703
000340 a0 b9 1c 3e 1e 73 e4 be 74 8c 21 bf da 86 de be
       0.15305185 -0.44619077 -0.6310494 -0.4346226
000350 90 82 48 be d4 51 84 bd 75 58 04 bf 65 a6 93 be
       -0.19581056 -0.0646092 -0.51697475 -0.28837886
000360 d5 74 d1 3d c7 fa c7 be cd a2 b1 be 65 d3 3a be
       0.10227362 -0.39058515 -0.3469452 -0.18244703
000370 f5 dd 6a 3d d5 a5 8a be 39 16 97 bd 3a d8 38 be
       0.05734058 -0.27079645 -0.073772855 -0.18051234
000380 7f 64 ef be 93 7e df be 25 e2 db bd 91 a4 dc 3d
       -0.4675636 -0.43651256 -0.10736493 0.10773576
000390 a6 c4 09 bf 06 a3 ae 3d 6d fe 9d be e9 a0 03 bf
       -0.53815687 0.08527188 -0.30858174 -0.51417404
0003a0 68 9f cf bd 0f af a4 bd ae ba 75 3e 2b b6 8b 3b
       -0.10137826 -0.08041202 0.23996994 0.0042636595
0003b0 11 a8 dd bd b9 12 e9 3d 21 8e 42 bd d1 54 d8 3d
       -0.10823072 0.11380524 -0.047498826 0.105630524
0003c0 8d 8d f7 bd 37 89 00 3e 58 8d 62 bf 2e 94 d9 bd
       -0.120875455 0.12552343 -0.88496923 -0.10623966
0003d0 3c b7 c5 3d 4a ec 81 3c cb 23 78 be 06 3e 26 bf
       0.0965409 0.015859742 -0.24232404 -0.6493839
0003e0 04 88 b9 be c4 5d 73 bf 3e 95 03 bf 04 f4 a9 3c
       -0.36236584 -0.9506495 -0.513996 0.020746239
0003f0 71 d5 6b be 0b 75 e7 3d 5e ad 94 be 78 91 2d bf
       -0.2303064 0.11301621 -0.2903852 -0.6780009

fc2.bias f4 [64]
000000 ee ed af bc 77 e4 aa be cd 34 32 be b5 07 d6 bd
       -0.021475758 -0.3337743 -0.17402954 -0.10450689
000010 f2 9f e6 3d 38 20 3d be 09 92 1f 3d e8 f2 39 be
       0.11260976 -0.18469322 0.03895763 -0.18159068
000020 36 35 b4 bd 9c 5f e7 bd 5c 8a 85 be f3 c2 59 bd
       -0.08799212 -0.11297533 -0.26082122 -0.053164434
000030 a0 98 6b 3e 11 75 00 3d cb af 4e be de a7 f1 bd
       0.2300744 0.031361643 -0.20184247 -0.11799596
000040 a4 db e8 bd 01 ee 89 bd 90 65 9e be 33 db c9 bd
       -0.11370018 -0.06734849 -0.3093686 -0.09856262
000050 d7 bb 6d be d6 04 43 3e a6 11 77 be 4d a9 9d bd
       -0.23216186 0.19044814 -0.24127826 -0.07698307
000060 94 be 19 be 01 df c8 bd 8b 36 45 be 46 a8 34 bb
       -0.15014106 -0.098081596 -0.19259088 -0.002756612
000070 ab a7 fd bd 01 fb 82 be d0 4f 0c be 51 73 c7 be
       -0.12385496 -0.25582126 -0.13702321 -0.38955167
000080 ec 7e 37 be 25 eb a2 3d dd dd 3c be 3d a4 a3 bd
       -0.1791951 0.079550065 -0.18444009 -0.0799031
000090 52 2e e0 bd 20 04 3c be a8 1e 8f bd 6a d6 24 be
       -0.10946335 -0.18360949 -0.06988269 -0.16097417
0000a0 7d 17 5b be 01 17 0c 3e 8f 62 93 bc bd 07 69 bd
       -0.21395679 0.1368065 -0.017991332 -0.056892145
0000b0 90 a8 91 bd 59 2d ca bd 4f f1 ba be 9b 5e 62 be
       -0.07112229 -0.09871931 -0.3651223 -0.22106402
0000c0 71 2a 26 bd ab 97 d7 b7 4e d8 1e be 84 ed 8d 3d
       -0.04056782 -2.5700623e-05 -0.15512201 0.06930068
0000d0 fe 89 20 be 81 19 28 be fc aa e6 3c 7b 90 9e be
       -0.1567764 -0.16415979 0.028157704 -0.30969605
0000e0 16 57 be be 32 b9 7b be f5 5a 3a be 47 4f 36 be
       -0.37175816 -0.24582365 -0.1819876 -0.1780368
0000f0 48 5e c9 bd 2e bc b3 bd cd a8 1c bd 90 fd a2 bd
       -0.09832436 -0.08776127 -0.03824692 -0.079585195

fc3.weight f4 [4, 64]
000000 46 cd 12 3e 31 02 fb 3d 26 6b f1 3c 1e 08 1c bf
       0.14336118 0.12256277 0.029470038 -0.60949886
000010 65 37 a8 3d a4 b8 08 bd e4 70 24 3e 40 81 97 be
       0.08213691 -0.033379212 0.1605869 -0.29590797
000020 ff 9e bf bd cb 97 58 be 4f b7 63 be 73 f2 0c 3e
       -0.09356498 -0.21151654 -0.22237895 0.13764362
000030 c8 ad 80 3e 6f ed 51 3d da 9c 49 3d 7b 8b 07 bf
       0.25132585 0.051251825 0.04922185 -0.52947205
000040 04 1b 49 3e b5 12 a7 3d 5f cd 8f 3e 9d 69 09 3d
       0.19639212 0.08157865 0.28086373 0.033547986
000050 a8 23 4e be 9a 7b 71 3e 03 07 e3 bb 4d 87 1e bf
       -0.2013079 0.23582307 -0.006928326 -0.619252
000060 21 c7 ff 3c 3c c1 35 be 5a 04 ad be 22 b7 89 bd
       0.031222882 -0.17749494 -0.33792382 -0.06724383
000070 9f 0b bd 3c 27 13 42 3e 35 05 d7 be 13 e0 c8 bd
       0.02307683 0.18952619 -0.4199616 -0.09808364
000080 a2 b6 a4 bc b8 ab 7f 3e 4b 72 08 3d 8c 60 a2 be
       -0.020106617 0.24967849 0.033312123 -0.31714284
000090 fc 8e f7 3c 9b ff b0 bd ec c4 d0 3d 05 68 fc 3d
       0.030219547 -0.08642503 0.1019381 0.12324528
0000a0 d7 f3 10 3e 37 16 8a 3d a8 46 8c be 44 e2 6f be
       0.14155518 0.067425184 -0.27397656 -0.23426157
0000b0 e9 b9 91 bc 77 3c 8a 3e 35 2d d2 be e4 0c 86 bc
       -0.017788844 0.26999256 -0.41050115 -0.016363569
0000c0 58 d6 72 bd 59 f7 a4 3e fc 7d 00 bd 5b 42 9d 3e
       -0.059286445 0.3221996 -0.031370148 0.30714688
0000d0 1b 92 e1 3d 55 a5 0e 3e 93 36 01 3d db 12 bd be
       0.110141955 0.13930257 0.031546187 -0.36928448
0000e0 6c 2d f8 be dd 00 bc 3d 06 e8 a5 3d 45 90 c9 3e
       -0.48472154 0.09179852 0.081008956 0.3936788
0000f0 e7 ad 14 3e 43 fb 58 3e 07 95 8d 3d e2 ea 2c 3e
       0.14519463 0.21189599 0.0691319 0.16886476
000100 cb 53 df 3d f1 08 e2 3c 4b 5e 9b 3d 3d 51 94 bb
       0.10904654 0.027592154 0.07586344 -0.004526286
000110 13 47 c9 3d 3e a1 c1 3b a9 0e d9 3c 1c e0 96 3c
       0.098280095 0.005909114 0.026496248 0.01841741
000120 e7 55 35 3e 0a 07 1e be 3d eb 1f 3d f8 87 df 3d
       0.1770855 -0.15432373 0.0390427 0.10914606
000130 1d 79 42 3e 76 b8 30 bc 09 9f c0 bd 8b 8f 57 bd
       0.18991514 -0.010786166 -0.094053335 -0.052627128
000140 e8 de ba be 0c e0 4e 3d 9f 6e 56 3c 6d d8 92 3d
       -0.3649819 0.050506637 0.013087898 0.07170186
000150 5d 3e 7c 3d fe 91 3f 3e 77 f1 95 bc 79 e2 18 bd
       0.06158291 0.18708035 -0.018303616 -0.037325356
000160 9c b0 c7 ba 7c 50 28 3d 22 76 ae 3c 1f eb fa bc
       -0.0015235129 0.04109238 0.021296564 -0.030629693
000170 f0 17 94 bd a9 c1 8b 3d 71 00 c4 3d db b9 d4 bd
       -0.07231128 0.06824047 0.09570397 -0.103870116
000180 b6 57 f1 bd de c8 47 3e 6c ff 10 3e a8 89 1b 3d
       -0.11784308 0.19510219 0.14159936 0.037973076
000190 f0 cc b9 3d e9 75 d2 3c be b6 82 ba 84 89 84 bd
       0.09072292 0.02569099 -0.0009972674 -0.064715415
0001a0 a8 5f ac 3d 9b 04 2d 3d 92 e5 0a be a1 5a 94 bc
       0.084166825 0.04224072 -0.13564137 -0.018109621
0001b0 f6 c0 f4 bd da 2f 48 be f5 ff af bd 05 69 4b bd
       -0.11950867 -0.19549504 -0.08593742 -0.0496607
0001c0 f2 b7 a9 bd 0f 84 6e 3e e5 84 38 3c a9 6f 90 be
       -0.08287038 0.23292564 0.011262153 -0.2821019
0001d0 2b 9c f0 3c 9c d2 33 be c2 22 92 3d eb 89 b7 3d
       0.029371342 -0.1756081 0.07135536 0.08961853
0001e0 f1 e9 10 bf 94 bc 65 3e b1 57 4f be 9e 50 13 3c
       -0.56606966 0.22435218 -0.20248295 0.008991389
0001f0 47 4f 58 3c 7c c6 f1 bd 84 34 fb bd b1 b1 dc 3e
       0.013202495 -0.11805436 -0.12265876 0.43104318
000200 bc d0 85 be 51 b3 04 be de df 80 3e e4 66 9d be
       -0.26135814 -0.12959029 0.25170797 -0.30742562
000210 e3 a8 4f 3e c8 77 85 be db a4 46 bd 6f 3e 55 3e
       0.20279269 -0.26067948 -0.048497062 0.20824598
000220 20 04 b7 3e 60 48 82 be 9e b0 86 be ff 4c 62 3e
       0.35745335 -0.25445843 -0.26306623 0.22099684
000230 d1 9d 75 3e 71 b9 3c bd cb d8 59 3c 2e ad 8f be
       0.23985983 -0.04607529 0.013296316 -0.28061813
000240 97 6e 0e 3e f2 5b e8 bd 0d af cb be d0 60 e6 3e
       0.13909374 -0.11345662 -0.3978199 0.44995737
000250 bb 19 52 be 91 4a 16 3e 26 6c 77 be 55 cb 3e 3e
       -0.20517628 0.14676882 -0.24162349 0.18632253
000260 6a 41 de 3e db d1 8c 3e 9b f6 01 be 55 df 97 3b
       0.43409282 0.27503857 -0.12691729 0.0046347775
000270 aa 76 0d 3d 5c 99 53 3e 7b 98 df 3d 66 37 f0 be
       0.034536995 0.2066397 0.10917755 -0.46917266
000280 bf 80 71 be c7 51 08 3e f6 1a de 3d e6 b5 4b 3e
       -0.23584269 0.13312446 0.10844986 0.19893607
000290 13 c0 09 3e a3 98 ae be 2e 0e f3 3e 5a f6 d9 3d
       0.13452177 -0.34100828 0.47471756 0.10642691
0002a0 1d 02 63 3e 37 68 1c 3e 33 57 9b 3c 45 fa 94 be
       0.22168775 0.1527413 0.018962478 -0.2909719
0002b0 34 5d 93 be da 5b 69 bd 4e 1e 54 bd 89 cb 93 3d
       -0.28782046 -0.056972362 -0.051786713 0.072165556
0002c0 e0 a1 15 be c7 0b f6 3d a3 3c 4e ba f8 0e e2 bc
       -0.14612532 0.12013965 -0.0007867312 -0.027595028
0002d0 b1 c9 36 3e 04 39 8f 3d 46 72 8e bd 56 02 26 3a
       0.17850377 0.06993297 -0.0695539 0.00063327455
0002e0 4d ac a8 be 39 d0 fd bd 9b 5a cc be 16 d8 8d be
       -0.32943955 -0.12393231 -0.39912876 -0.27703923
0002f0 c5 91 4e be b6 d2 78 be f3 9e fe be 09 05 94 3e
       -0.20172794 -0.2429913 -0.49730644 0.28910092
000300 b5 c4 88 3d 38 ec 9b 3e 40 60 22 3e b4 8d 07 be
       0.06678144 0.30453658 0.15857029 -0.13237649
000310 80 94 2c 3d 8b 5d 6a bd 4f 82 d5 3e 98 21 84 be
       0.042133808 -0.057218116 0.4170098 -0.2580688
000320 81 a8 14 3c 6d 91 54 3e b7 44 e7 3c 64 70 52 3e
       0.009073378 0.207586 0.028231008 0.20550686
000330 f0 0e 03 3e ec df 11 3d 52 d7 c5 3c f8 4b cd be
       0.12798667 0.03561394 0.024150524 -0.40097022
000340 bd 56 72 bd 32 5b ea bd 40 94 4c 3e 2d df 16 3b
       -0.05916475 -0.114431754 0.19978428 0.0023021207
000350 4f 6f 65 3e de 10 26 3e e7 0d 98 bc 94 54 41 3e
       0.22405742 0.16217372 -0.018561317 0.1887992
000360 52 e2 c4 3d f4 7f 25 3d 3e d0 b8 bd b6 af 0b bd
       0.0961348 0.04040523 -0.09024094 -0.034103118
000370 ca 08 c9 3d 23 30 8c be 7d 10 57 bd 77 a2 2b 3e
       0.098161295 -0.27380475 -0.05250596 0.16761194
000380 b9 98 52 3c 4a 1f 60 3e 8a 6e fb be 3e 9e e3 3d
       0.012853795 0.21886936 -0.49107772 0.11114167
000390 76 59 a3 3e 1f a3 76 be 54 fc 17 3e 9a 16 db 3e
       0.3190419 -0.24085663 0.1484235 0.4279068
0003a0 00 90 80 be 3d f7 3e 3e 4d f8 2f bc f5 8e 75 3e
       -0.25109863 0.18649001 -0.010740352 0.23980315
0003b0 c8 cf fd 3e 45 ea 03 bf 5b ce 95 3d 02 e5 8c 3b
       0.49572587 -0.5152934 0.0731475 0.004299761
0003c0 5b 55 07 3e ec 85 04 3e 0e f8 6c 3d b3 d2 c1 3d
       0.13216154 0.12941712 0.05785375 0.09464016
0003d0 e2 71 2c be 1e c5 56 be e1 68 88 3e a1 dd 6a be
       -0.16840318 -0.20973632 0.26642516 -0.22936107
0003e0 99 e1 62 be ad 1f 81 bc 52 9a 62 be 1e 4f 3b be
       -0.22156371 -0.015762175 -0.22129181 -0.182919
0003f0 59 83 8b be 0a 81 08 be 8e c7 80 be da c5 f4 bd
       -0.27248648 -0.13330474 -0.25152248 -0.119518

fc3.bias f4 [4]
000000 6a 56 29 3e fe 0b 09 3e d8 44 1b 3e 5a 5e 16 3e
       0.1653687 0.13383481 0.1516298 0.1468443
